Knowledge_Distillation/student_kd.pt (torch, 439319 bytes, 6 tensors)

fc1.weight f4 [128, 784]
00000000: 7c8c 633c dd74 083d 82ab 79bc 32b3 46bc
00000010: 8ce5 d139 7b6b c23c 0856 5c3c 94f8 2d3d
00000020: 7000 343c f961 c13c fc5d 5c3b 57d2 e93b
00000030: 7193 a3bc 92be 1bbc b07a 14ba 039b 7d3c
00000040: dda0 e73c d6c1 113d 50c3 24bc 2907 b7ba
00000050: 473b de3c dc74 333d a603 df3b 2c73 273d
00000060: 3c9d 093c 47ec 923c d870 3e3d fb71 9bbc
00000070: b570 08bc 6a95 a73b a2d1 7539 a25f 383d
00000080: f066 13bc 1b5b 16bb bc91 2bbc 612f 98bc
00000090: 3669 c4bb 06c0 3a3d 3a12 033d 11b0 023d
000000a0: 7221 7e3c 06d2 b9bb 3e1c 983c ccbf abbc
000000b0: bf7d 4dbc 8a0e 5bbb 6ca5 173d d2c9 0d3d
000000c0: c753 20bb 4c8a 643c 6c19 1a3d 270b 4b3d
000000d0: bb14 e83c 337d 9b3c a610 1c3d 3e35 e1bb
000000e0: cb7b aa3c 2cbc 5dbc 14d3 2cbc 0650 8cbb
000000f0: 93e6 f83c 9f29 e93c b3de ddbb fa7a d63c
00000100: 47c8 0e3d 87bc 283c 4d74 853c 37e3 a03c
00000110: 7c48 dc3c cc38 283d 07a3 4abc 7772 173c
00000120: 1075 403d f564 5e3d 55f4 543d ded0 523d
00000130: 386d bd3c 8909 6dbc f7d1 9e3c ad05 d4bb
00000140: c445 98bc d074 3b3d 5a36 293d 23e2 afbc
00000150: d1b9 aa3c 365b 053c 2867 093c ad40 07bb
00000160: 0b31 e53c 7f8c eabb 29f1 e03c aa96 063d
00000170: 959b 213d cba3 b13c 7a29 0ebd fb67 08bd
00000180: d311 c93b e738 5ebb 2be7 0ebd 186e 73bc
00000190: 3c2f 383d 65b2 1d3d f537 203b 56d4 343c
000001a0: b10b 49bc 6cd6 d83c fc13 a0bb 6dbb 24bc
000001b0: 7871 483c b300 a43c befa e239 fac8 103d
000001c0: 484e f8bb c4b7 3e3d 2487 1e3d 6496 82bc
000001d0: cfe0 9d3b 1644 333c 09b8 b33b a554 bb3b
000001e0: 0a03 ef3b 6c21 8c3b 4ed9 b5bc a03a 083d
000001f0: 89d1 08bd ecec 0fbd 9cae 17bd 4b4c dfbc
00000200: 721f 5cbc dbbe 29bc 8d26 2f3c 1082 dc3c
00000210: a182 2f3c 562d 173d a741 503d 75d5 003d
00000220: 945f 143d fb77 9f3c 9466 be3c 9e17 1b3d
00000230: 188d 443d d0e1 163d 9a2c 463d eaf0 083c
00000240: 9423 ecbc 8262 d0bc 2105 4bbc 084c 0abd
00000250: c648 cbbc e2c7 8cbc e0b5 0cbc 4797 af3c
00000260: 0551 f43c b8fc ba3c 4a15 21bc 5084 a0bd
00000270: c08d 6ebc 72cd f0bb 8ef8 b53c 0349 c13b
00000280: 3621 533d 9b99 713d 8eb0 953c 6003 c33b
00000290: 755a 173d f527 0b3d efd2 a33b 3be9 ed3c
000002a0: ed5d 93bc 8e08 3f3c be60 353d 5251 32bc
000002b0: e2f0 cc3c e0d6 88bc fd04 d5bd 4c1b d2bc
000002c0: 9496 b8bc d633 3cbd be03 293c 3964 f2bc
000002d0: 8440 eebb 3511 6bbc ce53 e53c 3d85 56bb
000002e0: 14d3 2e3c cdeb 3a3d 4676 1e3d 704a bb3d
000002f0: 7be1 af3d 4109 bd3d 9685 c73d 5fd3 a43d
00000300: 4b4f c43c 0802 1d3d ea68 b5bb a410 bdbb
00000310: ba12 dabb dff1 bd3c 7ebf 32bc aa2b 793a
00000320: 23d0 8dbc 1005 7ebc 83e7 b8bd 8008 88bd
00000330: 438a 23bd d0e0 593c 04a4 05bc 5d88 b23b
00000340: 4f06 eabc 4d96 403c 70ff f93c 24c9 053d
00000350: 8ec2 583d 7e99 513d 7409 bc3d cd19 063e
00000360: 24e4 d93d 3ef5 9f3d ee54 a13d d5c9 e73b
00000370: bce9 e93c fd96 7f3d 6a42 ec3c 911c 7a3c
00000380: ad94 89bc 74f5 fc3c 61b0 89bc ae06 11bc
00000390: d7b0 14bd f0b5 2bbd 6727 17bd 1ec2 0fba
000003a0: 493a 16bc f941 4a3d f3f0 273c 52cf 34bd
000003b0: 172d f2bc 351c 45bd 472a 343d dcb3 8c3d
000003c0: 727e 1b3d 9a07 963d 20a3 4f3d 1eaf 7f3d
000003d0: 2656 353d d278 dfbc face 023c 1c72 bebc
000003e0: 63d7 053d 2dce c63c 15cc ccba 4b48 a73c
000003f0: f2f2 323d 7605 273b 84a1 4fbc 27a6 78bc
0.013888475 0.033314575 -0.015238645 -0.012127684 0.00040034612 0.023732891 0.013448246 0.04247339
0.010986432 0.023606287 0.0033625355 0.00713567 -0.019967766 -0.009505885 -0.0005664034 0.015478852
0.028274948 0.035585247 -0.010056332 -0.0013963926 0.027127875 0.043812618 0.006805855 0.04088132
0.008399304 0.017934931 0.046494335 -0.018975249 -0.008327653 0.005114247 0.00023443115 0.045013078
-0.00899671 -0.0022942487 -0.0104717575 -0.01857728 -0.0059939874 0.045593284 0.031999804 0.03190619
0.015510904 -0.0056707887 0.018568154 -0.02096548 -0.012542187 -0.0033425414 0.037022993 0.0346163
-0.0024463998 0.013948988 0.0376219 0.049571183 0.028330198 0.018980598 0.038101815 -0.006872802
0.020810982 -0.013533633 -0.010548372 -0.0042820005 0.030383384 0.02846223 -0.0067709326 0.026181687
0.034858968 0.010298855 0.016290808 0.019639594 0.026890032 0.04106979 -0.01236797 0.009243599
0.04698664 0.0542955 0.051990826 0.051468723 0.023123369 -0.014467605 0.019387228 -0.006470403
-0.018587954 0.045765698 0.0413116 -0.021470135 0.020840557 0.008139422 0.008386411 -0.0020637915
0.027977487 -0.0071578617 0.027458744 0.03285853 0.039455015 0.021684548 -0.034707524 -0.03330229
0.006136158 -0.0033908428 -0.034888428 -0.014857791 0.04496692 0.03850021 0.0024447415 0.011036953
-0.012270854 0.026469432 -0.004885195 -0.010054451 0.012234084 0.020019865 0.00043292897 0.035347916
-0.007577691 0.04656197 0.0387031 -0.015940852 0.004818059 0.010941526 0.005484585 0.0057168775
0.0072940635 0.004276445 -0.022198346 0.033259034 -0.033402953 -0.035138056 -0.037031755 -0.027258059
-0.0134352315 -0.010360445 0.010690344 0.026917487 0.010712297 0.03690847 0.05084386 0.03145357
0.036223963 0.01946639 0.023242272 0.03786432 0.04798612 0.036836445 0.04838238 0.00835822
-0.028825559 -0.025437597 -0.01239136 -0.033763915 -0.024814975 -0.017185155 -0.008588284 0.02143444
0.02982379 0.022825584 -0.009831736 -0.078377366 -0.014560163 -0.0073487097 0.022213247 0.0058985963
0.051545344 0.05898438 0.018272664 0.00595133 0.0369515 0.033973653 0.0049995105 0.029041877
-0.017989123 0.011659754 0.044281714 -0.010883646 0.025017206 -0.016704023 -0.10401342 -0.025647782
-0.022532739 -0.045947872 0.010315834 -0.029588806 -0.0072708745 -0.014347364 0.027994063 -0.0032733225
0.010670442 0.045635033 0.038687013 0.09145057 0.08587929 0.09230281 0.09742276 0.08048128
0.023963591 0.038332015 -0.0055361884 -0.005769806 -0.0066550644 0.023186622 -0.010909913 0.00095051026
-0.017311161 -0.015504137 -0.09028532 -0.06642246 -0.03992678 0.013298228 -0.00815678 0.0054483847
-0.028567461 0.0117545845 0.03051731 0.032662526 0.052919917 0.051171772 0.091814905 0.1309578
0.106392175 0.07810448 0.07877527 0.007073621 0.028553836 0.062399853 0.028840262 0.0152656
-0.016794527 0.03087876 -0.016807737 -0.00885169 -0.03630146 -0.041921556 -0.03690281 -0.0005483943
-0.00916917 0.049379323 0.010250318 -0.04414303 -0.029562516 -0.048122603 0.04398563 0.06870243
0.037962385 0.07325669 0.050692677 0.062422864 0.04427161 -0.027279291 0.007983917 -0.023247771
0.032676112 0.024268234 -0.0015624786 0.020420214 0.043688722 0.0025485433 -0.012672786 -0.015176333

fc1.bias f4 [128]
00000000: a4ee 5dbd 1f6b 31bc 7e4b 213b 511d e8bc
00000010: 7a73 393d 199c 5abb 55fa 3f3b f61d 863d
00000020: 3672 b43c 86d1 00bd 483e bcbc e6bd d5b9
00000030: d648 953c bbed 4f3c 2e59 133a 5975 eebc
00000040: 532a 53bd 2cdc 493b 6977 17bb 8a9c 51bc
00000050: 0e21 9abc 2390 00bd 98e1 a73b 9029 af3c
00000060: 048e 473a b420 28bd 9993 663c ee9a 87bc
00000070: ab43 1d3d 8f1d 023c cc98 49bd 04b2 11bd
00000080: 4455 763c 56dc 85bc 7c41 893c a7db 1a3d
00000090: 098c 4abc 7ccc 4abc 4912 69bd a3c6 dfbc
000000a0: 30b6 63bc 528d 8b3c 930f 373d ef8c 4cbc
000000b0: 5001 72bb ac76 77bc 27ae 01bd 0e9d e8bc
000000c0: 5e18 96bc 2322 d63c ce5b 903c 2432 75bc
000000d0: 8f14 0bbd f60e 153d 74ca 5fbc 1048 013d
000000e0: 1f55 f6bc c0eb 163b c08f 27bc d2e6 763a
000000f0: febb 363d 5272 13bd 90b5 58bd 8e8d 783c
00000100: 2f1a 53bd aa29 1a3c acc2 833c 36af 71bc
00000110: 85c1 143d 736e 85bc b61d c93b 1b25 d3bc
00000120: de1d 993c 141b 0a3c 1f26 0a3d 7a0e b6bc
00000130: adee 203d daa7 74bb 5426 653c 4a2a 05ba
00000140: a59b 923c c7bb 2abd 1b60 c6bb 4634 ea3c
00000150: 625a c33b d8f5 febc e969 f3bc c93b ae3c
00000160: f793 5e3c cffc a6bb 8ce1 4abc c37b 4f3c
00000170: 6d2d 9bbc 29da 933c 2085 5abc 5056 a9bc
00000180: 657e 5d3c 5ca7 b83b 1fab 93bc d273 d8bb
00000190: 5538 8fbc 60d6 2c3d 25d6 783b a46a 35bb
000001a0: ff31 c1bc 82c9 94bc 1838 9ebc c0a2 0a3c
000001b0: 182d 3a3c 08b8 733d 78f6 57bb 0b3b 2d3c
000001c0: 2cd1 8dbc 68d8 fc3c 46e4 9a3c 33eb 053c
000001d0: 1ad7 36bc d23f 233d 3eeb 4f3d 66ff 3d3c
000001e0: 5a4c 60ba 8cf3 fcbc a68a 3bbc 1b84 d93b
000001f0: 100e ed3a 7847 273d b44c c2bb d5f9 423c
-0.054182664 -0.010828762 0.0024611647 -0.028334292 0.045276143 -0.0033357202 0.0029293497 0.06548683
0.022027116 -0.031449817 -0.022978917 -0.0004076801 0.018223207 0.012690957 0.0005620894 -0.02910869
-0.051554035 0.0030801399 -0.0023111945 -0.0127936695 -0.01881459 -0.03138746 0.0051233284 0.021382123
0.00076124095 -0.041046813 0.014073276 -0.016553368 0.03839461 0.007941618 -0.049217984 -0.03557016
0.015034977 -0.016340416 0.016754858 0.037807133 -0.012362489 -0.012377854 -0.056902204 -0.027316397
-0.013898417 0.01703516 0.044692587 -0.012484773 -0.0036927052 -0.015103977 -0.031660225 -0.028395202
-0.018322166 0.026139325 0.0176219 -0.014965568 -0.033955153 0.03639122 -0.013659108 0.031562865
-0.030069886 0.0023028702 -0.010227144 0.000941855 0.044612877 -0.035997696 -0.052907526 0.015170468
-0.051538642 0.009409348 0.016084038 -0.014751246 0.036317367 -0.016288018 0.006137575 -0.02577453
0.018691 0.0084293075 0.03372776 -0.0222237 0.03929012 -0.0037331493 0.013986189 -0.0005079849
0.017896483 -0.041682985 -0.006053937 0.028589379 0.005961702 -0.031123087 -0.029713588 0.021268742
0.013585082 -0.005096055 -0.012382876 0.012663784 -0.01894256 0.018048363 -0.013337404 -0.02067104
0.013518904 0.005635185 -0.018025933 -0.0066056037 -0.017482916 0.04219663 0.0037969437 -0.002768197
-0.02358341 -0.018162493 -0.019313857 0.008461654 0.01136329 0.059501678 -0.0032953303 0.010573159
-0.017311655 0.03086491 0.018907677 0.008173752 -0.011159683 0.039855786 0.050761454 0.011596536
-0.0008556299 -0.030877851 -0.011446631 0.0066380627 0.0018085856 0.040839642 -0.005929554 0.011900385

fc2.weight f4 [64, 128]
00000000: 953d 65bd 5c0b 8bbd 434f 843d b2f0 8b3d
00000010: 4563 ccbc 8d0d bbbd 3f0c 193d 50b5 a0bc
00000020: f2f1 f93d 3200 803b 31ec 65bc 649c b2bd
00000030: 486b 6cbd 26a7 303d ad0a 4fbe 284f 4c3d
00000040: ec58 123e 1747 aa3d 9413 b03b bb8f 9ebd
00000050: 95f3 4f3a e0fd 95bd 51e9 b63d 1025 dcbd
00000060: 8d43 473e 51a3 5ebc c786 09bb e362 17bd
00000070: 17e6 863d ba68 103b 5851 40bc 0c6b 523d
00000080: aad3 ac3d 2376 093e 446b 9a3c 11d1 873d
00000090: 89b4 dabd e6f2 573c 4f85 a4bc 5673 e23d
000000a0: 3d3d 28bd adff 933d ac77 e13d 1dd5 20bd
000000b0: aac6 d93b b50c a73d b7ac 47bd ff4d 763d
000000c0: 498f c23d 5711 523c 8128 cfbc e762 073d
000000d0: ed30 6f3d d191 1e3d bd08 4ebd d1c2 9bba
000000e0: f089 88bd c00f 163e a02d 98bc 2cd4 873d
000000f0: f5e3 b13d b0af efbd 3bfa a0bd 7aeb fbbd
00000100: cf4a e93d b692 b63d 5839 483d f850 243e
00000110: fa67 ebbb 5aa8 7fbc c460 be3c cb49 533d
00000120: 6cdb ca3d 06e2 f73d 648e cfbd 43d8 423e
00000130: 3aa6 7a3d 2d3a cabc 950b c8bc 201e 4ebd
00000140: 8bd9 883d 0a1c 6bbd f565 4b3d b5a1 84bc
00000150: 9408 8ebc a4f3 cabd b00a 2d3d be20 f0bb
00000160: 8d25 70bd 70f1 1cb9 9e82 02be 675d dc3d
00000170: 9c9b d9bd 0b7e fe3d 7946 0b3e 1496 133d
00000180: ab43 16bd e2ff f13d 5b18 dabc 7b1c d13d
00000190: c94f 3cbc e29d 13be c0d1 a63d 4b4e 33bc
000001a0: 4cce 9a3d 05df 903d 7e92 a93d f927 ae3d
000001b0: 34aa aabd 9367 233e b892 d73d 3393 a63d
000001c0: c865 b03d 64f9 b5bd 720c 8c3c a254 d4bd
000001d0: 9522 1f3e 5220 71bb 3061 6c38 e721 c3bd
000001e0: 140e a4bc e23d 3c3e a952 afbd 5ab3 efbd
000001f0: c9e7 153b ad51 40be 0f07 813c f69e 71bd
00000200: 19d9 cebc f1b6 d63d 266d b43d 90d6 45bd
00000210: bfd7 e53c 7269 f83a 9688 af3b 19c6 1d3e
00000220: 0ac7 b4bd ea8b f63c b11f bb3c 4691 363b
00000230: bd25 58bb 7da4 b53c 7714 a4bd 2b36 88bd
00000240: 3a0b 09be f2d0 1cbb 21ab e13c 8842 dabc
00000250: ee63 173e afaf c73d e1e1 57bd 4a77 1bbe
00000260: 663a 10be 0f0d 073e f614 03bb 23b6 cc3c
00000270: f9b0 d3bd b183 51bd b7da d2bd 3ea1 c33a
00000280: bdec 3fbe a161 00bd 1560 66bd 3e85 ea3c
00000290: 93d3 433d b58c f4bd 31ff a93d 28e8 1cbe
000002a0: 88a7 d5bd b187 d9bd 5a54 b3bd a7e1 443d
000002b0: b19d 153d 0acb 503b 1bca 433d 8a74 f8bd
000002c0: 2e18 9cbb e3a1 92bd bd15 fa3c 69cb a23d
000002d0: efb0 05bb 537c b7bd 7e79 513d aa04 1c3e
000002e0: 0e04 c83a 02b8 ac3d 6b61 29be f36e bfbc
000002f0: 66b7 3cbd eb3c db3d a0c9 65bd 5dc6 fd3a
00000300: 9b90 05be 50e1 b33c 2723 2bbd a135 e0bd
00000310: e95b 913d b08a 96bd e810 0abd 7836 dabd
00000320: c9d7 97bd 1346 85bb 7a87 fe3d 7974 78bc
00000330: c9a1 d2bc 1803 b4bd 287d fbbc c354 e83a
00000340: 11ed b7bd ed28 373d 1697 ac3d b0b3 98bd
00000350: 390b b03c 2267 f13d 9f6a 0bbc 61f7 a0bd
00000360: 91ab f63d 7979 2c3d 8795 1bbe 1357 79bd
00000370: b328 313d 81f2 223d feef f0bd f06b a3bd
00000380: 702a aa3b 2265 d6bd 443c 8f3c 9913 f6bd
00000390: 8fc1 563c e21a 0f3e 0965 33be 15e0 fcbc
000003a0: c547 a4bd e35f 45bc b998 5abd c95b 783c
000003b0: 4054 dfbc 3384 253e c260 ba3c 64a4 5abd
000003c0: b57a 453d 37aa cabc 5281 ecbd b6dc 8e3d
000003d0: c688 0e3d dc11 263d adbb 593d fce3 b3bd
000003e0: 9855 d53c 34fe edbd d0e2 213e c7e2 a73d
000003f0: dc43 1dbe 686d 953c c3d8 493e 5795 053d
-0.055966932 -0.06789276 0.064604305 0.06833018 -0.02494968 -0.09133444 0.037365194 -0.019617707
0.122043505 0.0039062733 -0.014033363 -0.087212354 -0.0577195 0.043128155 -0.20218916 0.049880177
0.14291734 0.083143406 0.0053734276 -0.07742258 0.000793272 -0.073238134 0.0893122 -0.107492566
0.19459362 -0.013588742 -0.0020984875 -0.03695954 0.06586855 0.0022035078 -0.011738144 0.05137162
0.08438809 0.13423972 0.018849976 0.06631673 -0.106789656 0.01318047 -0.020083098 0.11057155
-0.041074026 0.07226501 0.11009154 -0.03926574 0.006645997 0.081567205 -0.048748698 0.060132977
0.09499986 0.012821517 -0.025287868 0.033053305 0.05839627 0.03871328 -0.050301302 -0.0011883621
-0.066669345 0.14654446 -0.018576443 0.066322654 0.086860575 -0.117034316 -0.07860228 -0.12300773
0.11391222 0.08914702 0.048882812 0.16046512 -0.007184026 -0.015604103 0.0232395 0.051584046
0.09905133 0.121036574 -0.10134581 0.1902781 0.061193682 -0.024685943 -0.024419585 -0.0503217
0.06682118 -0.057399787 0.04965778 -0.01619039 -0.017338075 -0.09909752 0.04224652 -0.007328122
-0.05862956 -0.00014967262 -0.12745139 0.107600026 -0.10625383 0.124263845 0.13601102 0.036031798
-0.036685627 0.11816384 -0.026622942 0.1021051 -0.011493632 -0.14415696 0.081454754 -0.0109439595
0.07558879 0.070737876 0.08279894 0.08503718 -0.08333245 0.15957479 0.10526031 0.08133545
0.08613163 -0.08885458 0.017095778 -0.10367705 0.15540536 -0.0036792946 5.6357298e-05 -0.09527951
-0.020026244 0.18382981 -0.08560688 -0.117041305 0.002287375 -0.18781157 0.015750436 -0.058989488
-0.025250005 0.10484112 0.08809881 -0.048300326 0.028056977 0.0018952324 0.0053568585 0.154076
-0.08827026 0.030096013 0.02284226 0.0027857586 -0.0032981478 0.02217316 -0.08011716 -0.06650957
-0.13383189 -0.0023928252 0.027547421 -0.026643053 0.14784214 0.09750306 -0.05270565 -0.15182224
-0.14084777 0.13188575 -0.0020001507 0.024989193 -0.10336489 -0.05115098 -0.10295623 0.0014925373
-0.18742652 -0.031343106 -0.056243975 0.028627988 0.047809195 -0.119409 0.08300627 -0.15322936
-0.10432345 -0.10621584 -0.08756323 0.04806676 0.03652734 0.0031859302 0.047800165 -0.12131603
-0.0047636246 -0.07159784 0.030527944 0.07948954 -0.002039965 -0.0895926 0.051141255 0.15236154
0.0015259997 0.08433534 -0.16541068 -0.023368334 -0.04607334 0.107049786 -0.056100488 0.0019361485
-0.13043444 0.021958023 -0.04178157 -0.10947729 0.070976086 -0.07350671 -0.03370753 -0.1065492
-0.074142046 -0.0040671914 0.12428184 -0.015164488 -0.02571191 -0.087896526 -0.030699328 0.0017725456
-0.08980764 0.044716764 0.08427255 -0.07456148 0.021489726 0.11787249 -0.008509307 -0.07859684
0.120444424 0.042108033 -0.15193759 -0.060874056 0.043251704 0.03978205 -0.11764525 -0.07979572
0.005193047 -0.10468508 0.017484792 -0.12015457 0.013107671 0.13975099 -0.1751901 -0.03086857
-0.080215015 -0.012046787 -0.053368304 0.015158602 -0.027261853 0.16163711 0.022751216 -0.05337943
0.048212726 -0.024739368 -0.115481034 0.06975691 0.034798406 0.040544376 0.053157497 -0.08783719
0.02604179 -0.11620751 0.15809178 0.08197551 -0.15357918 0.018240646 0.19711594 0.032613125

fc2.bias f4 [64]
00000000: 2edf 5e3e 6568 1c3e 0e80 adbc 8e5a 693d
00000010: b2e0 1e3e 0773 8d3d e165 303d 1694 78bd
00000020: cccd 933d 654b 43bc d3d4 f33d bd84 933d
00000030: d654 77bd 77c9 653d 2ebd 33bd bef4 883d
00000040: 371d 2a3e f343 813c 3b92 0a3c f3b0 773b
00000050: 44e2 db3d 5714 2abd f0fc 90bd d424 f63c
00000060: 9f2f 393c 02b4 1bbc 8425 173d 5543 b73d
00000070: 4152 69bd 6f08 7a3d 00c4 9d3d d207 553e
00000080: 1444 193d af40 47bd 82b4 723d 6c29 453d
00000090: 3ab4 9cbd 98c7 f43d 196f a9bd 46da 96bd
000000a0: d0d6 003e 523a a2ba 7bb8 0b3c 4d81 013e
000000b0: fba0 d03d e12b 653c b2e3 553c 7d89 8e3d
000000c0: fca0 5f3d d6c8 09bd 0f03 a6bc 9fb1 0cbd
000000d0: 529e 573d 7777 d3bd 3644 963d 17ef ed3d
000000e0: 6cf4 013e 097b 343d b1a9 263e 031d 943d
000000f0: bb6e d13d dc2f c23d 21f1 103e 3cf9 b03d
0.21764824 0.15274198 -0.021179225 0.056971125 0.15515402 0.06906705 0.04306591 -0.0606881
0.07216987 -0.011919831 0.119058274 0.07203052 -0.06038364 0.056100335 -0.043881588 0.06687306
0.16612707 0.015779471 0.008457716 0.003779468 0.10736516 -0.041523304 -0.07079494 0.030046858
0.011302858 -0.009503366 0.036901012 0.089483894 -0.05696321 0.0610432 0.077034 0.20803764
0.03741844 -0.04864567 0.059254177 0.048135206 -0.07651563 0.11952132 -0.08273143 -0.07365851
0.12581944 -0.0012377 0.00852787 0.1264698 0.101869546 0.013987512 0.013054775 0.069598176
0.054596886 -0.033638798 -0.02026513 -0.03434908 0.05264122 -0.103255205 0.07337229 0.116178684
0.12690896 0.044062648 0.1627567 0.07232096 0.10226198 0.09481785 0.14154483 0.08641288

fc3.weight f4 [10, 64]
00000000: aa01 37be a4f4 2e3e ca9e d2bd 0bda 3c3d
00000010: bff4 893c 10ce 663e 82f1 393d cec8 283d
00000020: 9cc1 803d 0abf cc3d a36e af3a 515f 3a3d
00000030: a3dd 043e ea61 913d 8e03 9dbc 756b 983d
00000040: 08a9 233e a3bd 813c 8ad0 433e a9ae a73d
00000050: d636 8b3d 7996 b73d c3b6 a13d 3781 d2bc
00000060: 06f0 e33d 75f3 a53c 966e ddbc eb3d 29bd
00000070: 9dd8 f4bc 7d2a 853d b098 2d3d 6ff9 35be
00000080: 6141 a8bd f899 d1bd 61e8 513e 4e23 5abd
00000090: 2bad db3d c4c7 63bd aa26 5e3d 7542 cf3c
000000a0: 7278 3fbd cb47 78bc 850b eb3d 4e3e 3fbc
000000b0: 4ee1 c5bc 1c5d 093e c2ea 893e db5c 0f3e
000000c0: 5cb9 62bc a560 c4bd 2197 b63b 0a2f ef3d
000000d0: 9fae 19bd e5ee 683e 058a cabd f422 7e3e
000000e0: c0a1 243c facb a5bc 0925 9e3d 47b6 c43d
000000f0: 38a6 06be 705d 143e 6059 a03d 79e9 e73d
00000100: ad20 443e 5972 96be da2f f73d 1d14 cdbd
00000110: 3633 4fbe 54a9 1dbe 759e 06be 5340 4b3e
00000120: 6378 473c 9100 1a3e 3d0b f33d 9b5f fc3d
00000130: 850f 0f3e ac25 df3c 8edc 8a3c 1dda 6c3d
00000140: c468 afbd 152f bbbb 8314 663e e7fe ae3d
00000150: eeb4 4abc 497f 9cbd a468 723d 3fcb 4c3d
00000160: 9e49 0abe 3be8 523e a96c 6f3d 4757 0b3e
00000170: a5ac 09bd 20b4 693d c7a2 683e fa5e 693d
00000180: 510b 083e 0905 cb3d daef 973d dbd4 6cbd
00000190: ef2f 013e 4d01 f3bd ecb6 4c3e 9d4c 963d
000001a0: 840c 5bba 7eea 4a3e 9b01 6b3e 1c55 973d
000001b0: 02a9 6e3e b0bd 263e 5541 f03d 5007 253e
000001c0: 88ec 053e d778 1cbd f70d 883e b6b9 943d
000001d0: 565b a3bb 200a 073e 22e3 ee3d a377 ec3d
000001e0: c1e6 a73d 7680 0abe f56d c9bd 3582 003e
000001f0: 55d0 173e 8b8a bc3c b4e1 823d 8b59 21bd
00000200: 8523 c53d e788 04be 8f10 8b3e 4e0c d83d
00000210: f6f5 11be 7be3 1abe 26ad c73d e68e 763d
00000220: 13f6 5ebc aad0 663e a2b9 173e 11fc cdbd
00000230: 668e 833c 311a d73d 64f7 c83d d83e 8a3c
00000240: e643 1a3e d682 3c3e 6641 3fbe 701c 2c3d
00000250: 232d 023b 0a78 0f3e 86e3 a4bd d99e 3f3e
00000260: 9eb9 153e fccc dd3c b4a1 2bbd c930 fdbc
00000270: 9b20 abbd 1560 643e 05b5 2d3e 03f7 fc3d
00000280: 3572 e93d b103 fb3d 151b 143e 22ad 293e
00000290: 1d52 aebd 252c febd 7278 f9bd edda 0a3d
000002a0: dc4a 16be 7a34 adbc 1dd7 ecbd bf6c 24bd
000002b0: e02d 9e3d 1f3f 7f3e f995 523e dc97 bdbd
000002c0: 72da b5bd 8cda 89bc ddff f8bd 20a8 57be
000002d0: ba22 1c3e f5d8 af3d 700e 8abd a786 ff3d
000002e0: 20ae 583e 99e7 2fbd 0d8b ed3d a59b 9fbd
000002f0: 3ce1 d4bc 6118 3f3e 957f 89bd 4987 6f3b
00000300: 58a6 243d 041e 253e c5ed e7bd c39b ab3d
00000310: 8cb6 82bd 845b efbd 9363 d0bd 31b7 9b3d
00000320: 1c1b 8abd 34d9 0e3e 7913 e93d 1d6a 013e
00000330: 6982 883d 9d9e 81be ec87 0d3e eff0 2a3e
00000340: 5913 3bbe 54c6 4f3d c83e 64bc 5c53 403c
00000350: 192a 40be efdf 3f3e 9a9a aa3d 8f53 c93d
00000360: bd50 ef3d 843c 03bd de9f 86bb 6c63 623e
00000370: 516b 61be 8094 e9b9 b06b 81bd 40c5 5a3e
00000380: 2a3e 2abe 5597 433d 40ad 683e 4b36 de3d
00000390: b3fe 2e3e 5314 a4bd e6cd b5bd 683a 29be
000003a0: 70bf 46bc a865 c7ba 1cc1 5cbe 3c39 4ebe
000003b0: 6660 493e bdec 68bc 99dd 02bd a0bd 19bd
000003c0: 55d7 c13d b015 c03c c5d9 15be 7b1e 1e3e
000003d0: b36b 803e 3e2d b83d da01 a4be a03c 583e
000003e0: a08c 133e fc99 103e d837 443e ddf9 d8bd
000003f0: 0e77 753e c712 c5ba a931 453d d0cb a33d
-0.17871729 0.1708551 -0.10284193 0.04610638 0.016840337 0.22539544 0.045396335 0.041207127
0.06286928 0.09997375 0.0013384413 0.045501057 0.12975173 0.07098754 -0.019166734 0.07442371
0.15982449 0.015837496 0.1912252 0.08187611 0.067975685 0.08964247 0.07896187 -0.02569638
0.11129765 0.02025769 -0.02703027 -0.041318815 -0.029888446 0.065022446 0.042381942 -0.17770933
-0.08215595 -0.10234445 0.20498802 -0.053256325 0.107263885 -0.055610433 0.05423609 0.025300244
-0.046745725 -0.0151538355 0.114768066 -0.011672569 -0.024155285 0.13414425 0.26936918 0.14000265
-0.013838138 -0.09588746 0.005572215 0.11678894 -0.037520047 0.22747381 -0.098896064 0.24818021
0.01004833 -0.020238865 0.07721908 0.09605079 -0.13149345 0.14488769 0.07829547 0.11323828
0.1915309 -0.29384115 0.12069674 -0.10013602 -0.20234379 -0.15396625 -0.13146384 0.19848756
0.0121746985 0.15039279 0.11867378 0.12322923 0.13970764 0.027239643 0.016950872 0.057825197
-0.08564904 -0.0057123997 0.22468762 0.085447125 -0.012372239 -0.07641465 0.059181824 0.049998518
-0.13504645 0.20596401 0.058453236 0.13607512 -0.033611912 0.057056546 0.22718345 0.056975342
0.13285567 0.0991307 0.07418795 -0.057820182 0.12615941 -0.118654825 0.19991654 0.073388316
-0.0008356052 0.19816014 0.22949831 0.0738928 0.23306659 0.16283298 0.11731211 0.16116071
0.13078511 -0.03820118 0.26573154 0.07261984 -0.0049852533 0.13187456 0.11664416 0.115462564
0.0819831 -0.13525566 -0.09835426 0.1254967 0.14825566 0.023015281 0.06390706 -0.039392035
0.096259154 -0.12942849 0.2716107 0.10549222 -0.14253983 -0.1512584 0.09749822 0.060194872
-0.013608473 0.22540537 0.14816907 -0.100578435 0.016059112 0.105030425 0.09812811 0.01687567
0.15064964 0.18409285 -0.18677291 0.042019308 0.001986333 0.14010635 -0.08051209 0.1871294
0.14621589 0.027075283 -0.04190226 -0.030907052 -0.083558284 0.22302277 0.16963585 0.12351801
0.113987364 0.122565635 0.14463456 0.16569951 -0.085117556 -0.12410764 -0.12181176 0.03390019
-0.14676994 -0.021143187 -0.11564467 -0.04014277 0.07723594 0.24926423 0.20565023 -0.092574805
-0.08879556 -0.016827844 -0.12158177 -0.21060228 0.15247622 0.08586303 -0.06741035 0.12476855
0.21160173 -0.042945478 0.115987875 -0.07793359 -0.025986306 0.18661644 -0.067137875 0.0036549142
0.0401977 0.16124731 -0.11324648 0.083793186 -0.06382474 -0.11687377 -0.10175242 0.076033
-0.06743452 0.13950044 0.11380667 0.12638135 0.06665499 -0.25316325 0.13821381 0.16693471
-0.182691 0.05072625 -0.013930984 0.011738624 -0.18766059 0.18737768 0.08330269 0.09830391
0.116853215 -0.032040134 -0.004108413 0.22108239 -0.22013594 -0.00044551864 -0.06319368 0.21364307
-0.16625276 0.047751743 0.2272234 0.10850199 0.17089348 -0.08011689 -0.08877163 -0.16526186
-0.012130603 -0.0015212791 -0.2155804 -0.2013902 0.1966568 -0.014216599 -0.031949613 -0.037534356
0.094648995 0.023447841 -0.14633854 0.15441315 0.25082168 0.08993004 -0.32032663 0.21116877
0.14409113 0.1412124 0.19161928 -0.10594533 0.23971197 -0.0015035503 0.048143063 0.079978585

fc3.bias f4 [10]
00000000: a82f 233e b19f 92bd bfda cf3d d674 f53d
00000010: 00c8 123e 9210 903d bd72 fc3d 3eba ebbd
00000020: e1bd 3a3e d957 823d
0.15936148 -0.07159365 0.101491444 0.11985175 0.14334106 0.070344105 0.12326572 -0.11510132
0.18236496 0.06364412
