Knowledge_Distillation/student.pt (torch, 439319 bytes, 6 tensors)

fc1.weight f4 [128, 784]
0	0x3c773211	0.01508762
1	0x3d0d5e54	0.034513786
2	0xbc6605fa	-0.014039511
3	0xbc330dbf	-0.01092857
4	0x3ad1a590	0.0015994776
5	0x3ccc3e4c	0.02493205
6	0x3c6ffb9e	0.014647393
7	0x3d32e20c	0.043672606
8	0x3c47a5f9	0.012185567
9	0x3ccb34cc	0.024805449
10	0x3b9579e1	0.0045616482
11	0x3c088e9d	0.008334783
12	0xbca804e2	-0.02051014
13	0xbc42d56d	-0.011891705
14	0x3a25de5c	0.00063273846
15	0x3c88a050	0.016678005
16	0x3cf173ae	0.029474106
17	0x3d16ab52	0.036784478
18	0xbc111de4	-0.008857224
19	0xb94ed5ae	-0.00019725293
20	0x3ce80e14	0.028327025
21	0x3d385e52	0.045011826
22	0x3c032755	0.008004983
23	0x3d2c5ca2	0.04208053
24	0x3c1d42bd	0.009598431
25	0x3c9cbf0c	0.019134067
26	0x3d435a52	0.047693558
27	0xbc919f48	-0.017776147
28	0xbbe99675	-0.0071285316
29	0x3bcee039	0.0063133505
30	0x3abbe672	0.0014335646
31	0x3d3d4916	0.04621228
32	0xbbff6762	-0.0077943066
33	0xba902da4	-0.001099993
34	0xbc633a6e	-0.013868911
35	0xbcc403ac	-0.023927532
36	0xbc445044	-0.011982027
37	0x3d32260d	0.04349332
38	0x3d002bef	0.0312919
39	0x3d059c13	0.032619547
40	0x3c672a42	0.014109196
41	0xbbcdc64b	-0.006279742
42	0x3ca8d704	0.02061034
43	0xbc96a344	-0.018388398
44	0xbc2e2c73	-0.010630715
45	0xbb497770	-0.0030741356
46	0x3d1b3fce	0.037902646
47	0x3d14b18a	0.036302127
48	0xb9fdd13b	-0.0004841181
49	0x3c6676a7	0.014066375
50	0x3d1c4c0d	0.038158465
51	0x3d501ab1	0.050806705
52	0x3cf1e782	0.029529337
53	0x3ca55008	0.020179763
54	0x3d20fa20	0.039301038
55	0xbbb9ea37	-0.0056736725
56	0x3cb44ea0	0.022010148
57	0xbc4a16b7	-0.012334517
58	0xbc19fa8f	-0.009398117
59	0xbb4acbd4	-0.0030944245
60	0x3d01142f	0.03151339
61	0x3cf305d6	0.029665869
62	0xbc0e540a	-0.008687029
63	0x3c9c8bcf	0.019109635
64	0x3ccb5b24	0.024823733
65	0xbbbcabbd	-0.0057577775
66	0x3afa1a90	0.0019081403
67	0x3c31606f	0.010826214
68	0x3c9726fb	0.018451205
69	0x3d008956	0.031380974
70	0xbcd52256	-0.02601735
71	0xbbd21f6a	-0.0064124363
72	0x3ccaa4d6	0.024736803
73	0x3d30da17	0.043176737
74	0x3d40b39d	0.047046293
75	0x3d5c5100	0.053788185
76	0x3cced65a	0.025248695
77	0xbc9031b5	-0.017601827
78	0x3c8e290e	0.01735356
79	0xbbe6544b	-0.0070290915
80	0xbc92e026	-0.017929148
81	0x3d40de4c	0.047087
82	0x3d2e1fd2	0.042510815
83	0xbca60f76	-0.020271044
84	0x3cb48ca4	0.022039719
85	0x3c1900b7	0.009338549
86	0x3c1b48bb	0.0094777895
87	0xba823760	-0.0009934716
88	0x3cee3822	0.0290795
89	0xbbba80dd	-0.005691631
90	0x3c933526	0.01796968
91	0x3c9c1348	0.019052163
92	0x3cabdad9	0.020978378
93	0xbb6c1d60	-0.003602825
94	0xbd72f88a	-0.059319057
95	0xbd83f599	-0.064433284
96	0xbca09d14	-0.01960615
97	0xbc806b5b	-0.015676191
98	0xbcd69020	-0.026191771
99	0x3b02a5e2	0.00199353
100	0x3d966004	0.07342532
101	0x3d2faa03	0.042886745
102	0xbc78d236	-0.015186837
103	0xbbd38ad6	-0.0064557595
104	0xbcf742fb	-0.030183306
105	0x3c012ffd	0.007884976
106	0xbc8c1f22	-0.017104689
107	0xbc921506	-0.01783229
108	0x3c61fc29	0.01379303
109	0x3ca9b706	0.020717155
110	0x3a3f146c	0.0007289115
111	0x3d15b272	0.03654713
112	0xbbd10349	-0.0063785654
113	0x3d43a13e	0.047761194
114	0x3d233454	0.039844826
115	0xbc71f720	-0.014768392
116	0x3bc6803b	0.0060577667
117	0x3bfb5237	0.007669713
118	0xb9bc5a49	-0.00035925422
119	0x3b0127df	0.0019707603
120	0xbc96e601	-0.018420221
121	0xbd0ae053	-0.03390534
122	0xbd73a15d	-0.05948006
123	0x3cd68952	0.026188526
124	0xbda62148	-0.08111817
125	0xbd6583d9	-0.056033943
126	0xbcb799ae	-0.022412147
127	0xbc62c24b	-0.013840268
128	0xbcf92fc8	-0.030418292
129	0x3c89fff0	0.016845673
130	0x3d00209d	0.031281102
131	0x3d86a3a5	0.065741815
132	0xbb2d43eb	-0.0026438187
133	0x3d0da788	0.0345836
134	0x3d7206f1	0.05908865
135	0x3cc9c2a8	0.024628952
136	0x3d198652	0.037481613
137	0x3cc009f6	0.02344225
138	0x3cbe7c16	0.023252528
139	0x3d1c0946	0.03809478
140	0x3d497690	0.049185336
141	0x3d1bcb40	0.03803563
142	0x3d49c7ba	0.04926274
143	0x3bf48a91	0.0074628075
144	0xbd040720	-0.032233357
145	0xbd184095	-0.037170965
146	0xbd089c4c	-0.03335218
147	0xbd335016	-0.043777548
148	0xbc76fab4	-0.015074421
149	0x3c001fc8	0.007820077
150	0x3d8485c0	0.06470823
151	0x3e11b369	0.14228596
152	0x3e005b2e	0.12534782
153	0x3d8438e7	0.06456166
154	0xbc586958	-0.01320871
155	0xbdfe4f44	-0.124174625
156	0xbd4d4260	-0.05011213
157	0xbd434bce	-0.047679715
158	0xbd11a563	-0.035558116
159	0xbdcaa034	-0.098938376
160	0xbd591411	-0.052997652
161	0x3d332a75	0.043741662
162	0x3cbba57a	0.022906054
163	0x3b910560	0.0044256896
164	0x3d7a9aff	0.061182972
165	0x3d18d720	0.037314534
166	0x3b51a945	0.0031991762
167	0x3cebffde	0.02880853
168	0xbc898b31	-0.016790004
169	0x3c53e1f3	0.012932288
170	0x3d44399c	0.047906503
171	0xbc7b8345	-0.015351121
172	0x3cd24be0	0.025670946
173	0xbd464608	-0.04840663
174	0xbe0b17ea	-0.13583341
175	0xbc7566c3	-0.014978114
176	0x3bc1dff2	0.005916589
177	0x3d16df4f	0.036834057
178	0x3e1146d8	0.14187181
179	0x3dfa6147	0.122255854
180	0x3dabe8ed	0.083940364
181	0x3d8a75f6	0.067607805
182	0x3d861e5b	0.065487586
183	0x3bfcd3f0	0.0077156946
184	0x3cf22f66	0.029563617
185	0x3d4507ae	0.048103027
186	0x3d3c9346	0.04603889
187	0x3d9a8fe3	0.075469755
188	0x3dafd0cf	0.08584749
189	0x3db7896f	0.0896176
190	0x3dffb2e9	0.12485296
191	0x3db5cc48	0.08876854
192	0x3d6bcd8e	0.05756908
193	0x3d7d97be	0.06191229
194	0xbbb4929b	-0.005510641
195	0xbb0d4844	-0.0021557966
196	0xbbb2c79b	-0.0054559237
197	0x3cdf6748	0.027270928
198	0xbbf3abc8	-0.0074362494
199	0x3920bfb8	0.0001533021
200	0xbcf4653f	-0.029833434
201	0xbd547b47	-0.05187538
202	0xbe05b478	-0.13057125
203	0xbda5c71c	-0.08094618
204	0x3be62f98	0.0070247166
205	0x3dae27a1	0.08503652
206	0x3d8719e4	0.06596735
207	0x3d500c15	0.050792772
208	0x3d2671df	0.04063594
209	0x3e050676	0.12990746
210	0x3e278aa6	0.16361484
211	0x3de1b7a9	0.110213585
212	0x3d81a80c	0.063308805
213	0x3dbd943b	0.09256788
214	0x3e0e19a1	0.13876964
215	0x3df8e7d6	0.12153594
216	0x3e00fd4f	0.1259663
217	0x3dea0623	0.11426952
218	0x3dc15c25	0.09441403
219	0x3b547d82	0.0032423441
220	0x3d0f6a12	0.035013266
221	0x3dbf5f80	0.09344387
222	0x3d0585e5	0.032598395
223	0x3c8c41e2	0.01712126
224	0xbc7f83eb	-0.015595417
225	0x3ce57346	0.028009068
226	0xbc90b4bd	-0.017664308
227	0xbc620cba	-0.01379698
228	0xbd5b475f	-0.05353486
229	0xbd5ff908	-0.054680854
230	0xbd0c8b1e	-0.03431236
231	0x3cdf4adb	0.027257374
232	0x3d3c7035	0.046005446
233	0x3db6d802	0.08927919
234	0x3bfab097	0.0076504457
235	0xbd2d45c5	-0.042302866
236	0xbc63d6bd	-0.013906178
237	0x3d5632d9	0.052294586
238	0x3e1409af	0.14456819
239	0x3defcaeb	0.117086254
240	0xbc20803f	-0.009796201
241	0x3d70d828	0.058799893
242	0x3d394ed0	0.045241177
243	0x3ce46ab1	0.027882906
244	0x3c61ea12	0.013788717
245	0xbce877df	-0.028377471
246	0xbd928397	-0.07154005
247	0xbd20db47	-0.03927162
248	0x3d2d6a2d	0.042337585
249	0x3ce56d03	0.028006082
250	0x3b1a43a9	0.0023538864
251	0x3ca47cf8	0.020079121
252	0x3d37cd80	0.044873714
253	0xbb233c99	-0.0024907945
254	0xbcb4ebf0	-0.02208516
255	0xbcdbaa11	-0.026814492

fc1.bias f4 [128]
0	0xbd54b020	-0.05192578
1	0xbb2747e4	-0.0025525028
2	0xbb8db1ba	-0.004324165
3	0xbd2c8630	-0.04212016
4	0x3c77dc5b	0.01512822
5	0xbc8c031c	-0.017091326
6	0x3b1eb8f8	0.0024219137
7	0x3ccc6ee6	0.024955224
8	0x3d2c61fa	0.042085625
9	0xbca710d4	-0.020393766
10	0xbbb1fc40	-0.005431682
11	0x3b959922	0.004565374
12	0x3c64ae7e	0.013957618
13	0xbbe4c7af	-0.006981812
14	0x3c42cf3e	0.011890231
15	0xbc8f93c4	-0.017526515
16	0xbd636a3a	-0.055521227
17	0x3b3fea77	0.002928404
18	0xbca3d78f	-0.020000247
19	0xbbd441e9	-0.0064775837
20	0xbc6267e6	-0.013818717
21	0xbd058172	-0.03259415
22	0xbcb25c96	-0.021772664
23	0x3c484290	0.012222901
24	0xbb3b1c1e	-0.0028550695
25	0xbd144eee	-0.036208086
26	0x3caa6928	0.020802096
27	0xbce97080	-0.028496027
28	0x3d2dc05f	0.042419787
29	0xbc445918	-0.011984132
30	0xbd2af72b	-0.041739624
31	0xbcc09011	-0.023506196
32	0x3ae8137e	0.0017706004
33	0xbc29d4e7	-0.010365701
34	0xbc29be3b	-0.010360296
35	0x3c58885d	0.013216105
36	0xbd2d5fa7	-0.04232755
37	0x3c163eff	0.009170293
38	0xbcc4378a	-0.023952264
39	0xbd0e78f0	-0.034783304
40	0xbca1395b	-0.01968067
41	0x3b1a7566	0.002356851
42	0x3c64c7b8	0.013963632
43	0xbc59d3c9	-0.013295122
44	0x3c96af38	0.018394098
45	0xbcbf0c0f	-0.02332118
46	0xbce08c0e	-0.027410533
47	0xbd074cc6	-0.0330322
48	0x3a8f3b92	0.0010927788
49	0x3d6aff66	0.057372473
50	0x3c86cf53	0.016456282
51	0xbcd1ef0e	-0.025626685
52	0xbd02c37d	-0.031924713
53	0x3cd58fd7	0.026069565
54	0xbbb82fea	-0.005620946
55	0x3ca1b084	0.01973749
56	0xbd2c390e	-0.0420466
57	0xb7db0280	-2.6107999e-05
58	0xbc518789	-0.012788662
59	0xbd2672bc	-0.040636763
60	0x3c86583f	0.0163995
61	0xbd7f36dd	-0.06230818
62	0xbd2418fc	-0.04006289
63	0x3cfacfda	0.03061669
64	0xbd3b5fef	-0.045745786
65	0xbb9df00a	-0.0048198747
66	0x3d1be662	0.038061507
67	0xbb3494be	-0.0027554478
68	0x3ca294b2	0.019846294
69	0xbd129ffe	-0.03579711
70	0x3d31ffe3	0.043456923
71	0xbd1444bc	-0.036198363
72	0x3c45dd97	0.012076757
73	0xbcbc1dca	-0.022963423
74	0x3ce78129	0.02825983
75	0xbcbed2ca	-0.023293871
76	0x3d234896	0.039864145
77	0xbbb98959	-0.005662125
78	0x3b3bc857	0.0028653347
79	0x3c069fce	0.008216811
80	0xbca3d684	-0.01999975
81	0xbcfcccf8	-0.030859455
82	0xbd14d106	-0.036332153
83	0x3b585f5d	0.0033015825
84	0x3c246808	0.010034569
85	0xbd1263d3	-0.03573973
86	0xbba8ba32	-0.0051491493
87	0x3c9e3d2e	0.019316282
88	0x3cb73175	0.02236245
89	0xbb455eac	-0.0030116243
90	0xbb8be256	-0.0042689247
91	0xbc9c5746	-0.019084584
92	0xbd685a53	-0.056726765
93	0x3b90c3f5	0.004417891
94	0xbbc1c369	-0.0059131873
95	0xbcb08d75	-0.021551827
96	0x3c3eafa4	0.011638556
97	0xbc8378f1	-0.01604888
98	0xbc96b85c	-0.018398456
99	0x3a905610	0.0011011977
100	0xbd2fd25f	-0.042925235
101	0x3d29e71f	0.04148018
102	0xbca2376e	-0.019801822
103	0xbcfe01f9	-0.0310068
104	0xbcd06cbc	-0.025442474
105	0xbd1478e3	-0.0362481
106	0xbd10aaf2	-0.035319276
107	0xbcda0151	-0.026611956
108	0x3d7be616	0.061498724
109	0x3bdd2483	0.0067487373
110	0xbd4626e3	-0.04837693
111	0xbce7476a	-0.028232295
112	0xbc29950a	-0.010350475
113	0x3bb9dbe8	0.005671967
114	0x3d503c45	0.050838728
115	0xbc24dbfd	-0.010062215
116	0xbd4042e1	-0.04693878
117	0xbc90aeda	-0.0176615
118	0x3d0a52b0	0.033770263
119	0x3cb9fb9e	0.022702988
120	0x3c91a4bb	0.017778745
121	0xbd4c580e	-0.049888663
122	0xbba62ee6	-0.0050715087
123	0xbd0d9b7e	-0.034572117
124	0x3b3a1017	0.0028390938
125	0x3ca2da2a	0.01987942
126	0xbd5805bd	-0.052739847
127	0x3cff01c6	0.031128775

fc2.weight f4 [64, 128]
0	0x3cd27a39	0.025693046
1	0xbb9edac0	-0.0048478544
2	0x3d056ad1	0.03257257
3	0x39348a38	0.00017217628
4	0xbdbbeff9	-0.091766305
5	0xbdeb9716	-0.11503427
6	0xbe0dafe3	-0.13836627
7	0xbe872e13	-0.2640234
8	0xbc9d61ae	-0.019211616
9	0x3e23e9fa	0.16007224
10	0x3b5c8348	0.0033647586
11	0xbe10a573	-0.14125614
12	0xbe18919f	-0.148993
13	0xbe0f7b64	-0.14011914
14	0xbcdac3ce	-0.026704695
15	0x3e0454ce	0.12922975
16	0x3e69c128	0.2282759
17	0x3bedae30	0.007253431
18	0x3d2e4f1c	0.042555913
19	0x3e1c366c	0.15255135
20	0x3da2eebf	0.079556935
21	0xbd2da92e	-0.04239767
22	0xbd94429a	-0.07239266
23	0xbd78d2d6	-0.060747944
24	0x3e987460	0.29776287
25	0x3dc4d2bc	0.09610507
26	0xbc819e26	-0.015822481
27	0x3db70659	0.089367576
28	0xbba21e11	-0.004947432
29	0xbd7e3e80	-0.062071323
30	0xbcd16ea8	-0.02556546
31	0x3e4c3e44	0.19945627
32	0x3e154afa	0.14579383
33	0x3d864492	0.065560475
34	0xbdf6a493	-0.12043109
35	0x3d684ea1	0.05671561
36	0x3d3b940d	0.04579549
37	0x3d9bc078	0.0760507
38	0xbc3f8c33	-0.011691141
39	0x3e903f16	0.2817313
40	0x3d6b693c	0.057473406
41	0x3dce3173	0.100680254
42	0x3e07d2c0	0.13263988
43	0xbe6fb2b6	-0.23408017
44	0xbc81efd2	-0.015861426
45	0x3e73d75e	0.23812625
46	0x3c61e658	0.013787828
47	0x3e343d26	0.17601451
48	0x3dca154a	0.09867342
49	0x3debd607	0.11515432
50	0x3b907be2	0.004409299
51	0x3c8391b4	0.016060688
52	0x3db1b514	0.08677116
53	0x3d89892a	0.06715615
54	0xbd0fc0ea	-0.035096087
55	0xbe0a846a	-0.13527074
56	0xbc8876f5	-0.016658286
57	0x3e45ba73	0.19309406
58	0x3e2e4baf	0.17021058
59	0xbdfaa0f4	-0.122377306
60	0x3e089a78	0.13340175
61	0xbe875e47	-0.26439115
62	0xbe32a3fd	-0.17445369
63	0xbdfa210e	-0.12213336
64	0x3e3e0a13	0.1855853
65	0x3e726b17	0.23673664
66	0x3e4b05aa	0.1982638
67	0x3e679953	0.22617082
68	0xbe3ad072	-0.18243578
69	0xbe1c3c70	-0.1525743
70	0x3d950f63	0.072783254
71	0x3e07fc59	0.13279857
72	0x3cf3c95c	0.029759102
73	0x3e432d70	0.19060302
74	0xbe108ad2	-0.14115456
75	0x3e668f20	0.22515535
76	0x3db5f872	0.08885278
77	0x3d8e9870	0.06962669
78	0xbdc80d3e	-0.09768151
79	0xbda5f659	-0.08103628
80	0x3e8b68f3	0.27228507
81	0x3d90c08c	0.070679754
82	0x3c2f9487	0.010716564
83	0x3d47754f	0.04869586
84	0xbe29eaaa	-0.16593423
85	0xbd1d3216	-0.038377844
86	0x3d82e0b1	0.06390513
87	0xbc70bd4a	-0.0146935675
88	0xbdb61fb7	-0.08892768
89	0x3b681259	0.0035411327
90	0xbd3619df	-0.044458266
91	0x3d2dc693	0.042425703
92	0xbd652eeb	-0.055952948
93	0x3d9feaab	0.07808431
94	0x3e96c96f	0.29450557
95	0x3e61f710	0.22066903
96	0x3ce96bac	0.028493725
97	0x3d73a9c7	0.059488084
98	0xbe316b0d	-0.17325993
99	0x3dc07322	0.0939696
100	0xbe9a1225	-0.30091968
101	0xbe5e40f2	-0.21704462
102	0x3db65a3f	0.08903932
103	0x3e1eda74	0.15513021
104	0x3e5f2322	0.21790746
105	0xbb8bdb08	-0.004268054
106	0x3e02ec48	0.12785447
107	0x3e0628b0	0.13101459
108	0xbdb25873	-0.087082766
109	0x3de92a75	0.11385051
110	0xbcb888b3	-0.02252612
111	0x3e897094	0.26843703
112	0x3dccfba2	0.10008933
113	0x3d6d4bf4	0.057933763
114	0x3cd003e1	0.025392475
115	0xbe0b4ea8	-0.13604224
116	0x3dfbe7ec	0.12300095
117	0xbd0999d4	-0.033593968
118	0xbd381ce0	-0.044949412
119	0xbd85fae4	-0.06541994
120	0xbe703e1e	-0.23461196
121	0x3e32c706	0.17458734
122	0xbe05c1b1	-0.13062169
123	0xbe3738b9	-0.17892732
124	0x3d1d70fc	0.03843783
125	0xbe79b630	-0.24385905
126	0x3d5d00b3	0.053955745
127	0xbe3c2b8d	-0.18375988
128	0xbd305c90	-0.043057024
129	0x3d577c31	0.052608673
130	0x3e73828a	0.23780265
131	0x3c587dbe	0.013213573
132	0xbc7da9f7	-0.015482417
133	0x3dc6a540	0.09699488
134	0x3cc219f3	0.023694014
135	0x3cc68c8a	0.024236936
136	0xbe47209e	-0.19446036
137	0xbd12e1d1	-0.035859887
138	0xbdbce982	-0.092242256
139	0xbd63be2e	-0.05560129
140	0xbe0d388d	-0.13791104
141	0x3c3940a0	0.011306912
142	0xbd44a2cf	-0.04800683
143	0xbca6d462	-0.020364944
144	0xbdae640e	-0.08515178
145	0x3dfb7390	0.12277901
146	0xbd3d698c	-0.046243235
147	0xbd5f30dc	-0.054489955
148	0x3e6f061b	0.23342173
149	0x3d4594ee	0.048237734
150	0x3e0cd5c9	0.13753428
151	0xbe459649	-0.1929561
152	0xbe45cd3f	-0.19316576
153	0x3e155af8	0.14585483
154	0xbc2a8441	-0.010407508
155	0xbd5a169f	-0.05324423
156	0xbdd6e2d7	-0.10492485
157	0xbdbf390d	-0.093370534
158	0xbcbd6d1b	-0.023123315
159	0xbcb112ef	-0.021615474
160	0xbe19645a	-0.14979687
161	0xbde02acf	-0.10945665
162	0x3d8bda6d	0.06828771
163	0xbcc073fb	-0.023492804
164	0x3e143628	0.14473784
165	0xbe0b97b6	-0.13632092
166	0xbcdbdedd	-0.026839668
167	0xbcccdfe1	-0.025009098
168	0xbd9d47e1	-0.076797254
169	0x38f6c1e5	0.0001176631
170	0xbdfb8d29	-0.122827835
171	0x3dbed963	0.09318807
172	0xbdad09c6	-0.0844913
173	0xbdd8bfc8	-0.10583454
174	0x3d6cb8d8	0.05779347
175	0xbe385a94	-0.18003303
176	0xbc25b9cc	-0.010115098
177	0x3d05d21d	0.032671083
178	0xbd729960	-0.0592283
179	0x3dce0fcd	0.100616075
180	0xbd004b86	-0.031322025
181	0xbe2bcb69	-0.16776814
182	0xbd015475	-0.031574685
183	0x3dd30670	0.10303962
184	0x3d3ed77a	0.046592213
185	0x3dbc84eb	0.092050396
186	0xbe2198c9	-0.15780939
187	0x3d45415c	0.048158035
188	0xbe3e50ac	-0.18585461
189	0x3e1f89d4	0.15579921
190	0x3da0fd36	0.07860796
191	0x3d164e1b	0.03669558
192	0xbe1ff52e	-0.15620872
193	0xbd63622b	-0.055513542
194	0xbe43c733	-0.19118957
195	0xbe80a6cb	-0.25127253
196	0x3dc4236a	0.09577067
197	0xbdcbe6ee	-0.09956156
198	0x3d8af192	0.06784357
199	0xbe3d058a	-0.18459144
200	0xbe37e576	-0.17958626
201	0xbd6574ed	-0.056019712
202	0xbe06ae15	-0.13152345
203	0xbdbd930d	-0.09256563
204	0xbdb141fe	-0.08655165
205	0xbdb5fc75	-0.08886043
206	0x3c6bc7ee	0.014390929
207	0xbae2a5e7	-0.0017291874
208	0xbe4d3279	-0.20038785
209	0xbc6c869f	-0.014436393
210	0x3e1f9b22	0.15586522
211	0xbd2480ac	-0.040161774
212	0x3de2d8ed	0.110765316
213	0x3e1091ba	0.1411809
214	0x3d28173e	0.04103779
215	0xbd69eaa3	-0.057108533
216	0x3e68b74e	0.22726175
217	0x3caa95d5	0.020823399
218	0xbdd65047	-0.104645304
219	0xbd3e9cdd	-0.046536315
220	0x3e0e27c9	0.13882364
221	0x3cadea97	0.021230025
222	0xbda4b921	-0.08043123
223	0x3cbd5e2a	0.02311619
224	0x3d079a73	0.03310628
225	0xbe58c3ad	-0.21168394
226	0x3d1c8025	0.038208146
227	0xbdb30d6d	-0.08742795
228	0x3d2cbab3	0.042170238
229	0x3e03583f	0.12826632
230	0xbe427590	-0.18990159
231	0xbdfbcb79	-0.12294669
232	0xbdaaa6d2	-0.083326
233	0x3d806c16	0.06270616
234	0xbda04c20	-0.0782702
235	0xbd33c1c0	-0.043885946
236	0xbd651be8	-0.055934817
237	0x3ddba842	0.10725452
238	0x3dcf7e2e	0.10131489
239	0xbd3f5fa0	-0.046722054
240	0x3e249fcd	0.16076584
241	0x3d877f3e	0.066160664
242	0xbcc510a6	-0.02405579
243	0x3df403b9	0.119147725
244	0x3d2f6238	0.042818278
245	0x39f4de58	0.00046704966
246	0x3e2d93c2	0.16950896
247	0xbd821687	-0.06351953
248	0x3e46f8af	0.19430803
249	0xbe25a63c	-0.16176695
250	0x3d30cec5	0.04316594
251	0xbd71ac2e	-0.059002094
252	0xbde8289b	-0.1133587
253	0xbd08efbc	-0.033431754
254	0x3e0cb7ea	0.13742033
255	0x3d47f417	0.048816767

fc2.bias f4 [64]
0	0x3e169411	0.1470492
1	0x3d98f02c	0.07467684
2	0x3d50d04a	0.05097989
3	0xbc036012	-0.00801851
4	0x3dbd388f	0.09239303
5	0xbdc842d0	-0.097783685
6	0xbc376741	-0.011194051
7	0xbe586709	-0.21133055
8	0x3d8db2a6	0.0691884
9	0xbe39fea4	-0.18163544
10	0xbd2538b5	-0.040337283
11	0x3dacbd3a	0.084345296
12	0xbda3d3b6	-0.07999365
13	0xbd97649f	-0.07392239
14	0xbd950d7b	-0.07277962
15	0x3b4eee38	0.0031575095
16	0x3de2a736	0.11067049
17	0xbd8e60db	-0.069520675
18	0xbe50fb41	-0.20408346
19	0xbe1d6e8d	-0.15374203
20	0xbcf553d1	-0.029947193
21	0xbe71071b	-0.23537867
22	0xbe83909d	-0.2569627
23	0xbd61f17c	-0.055161938
24	0xbe1575d2	-0.14595726
25	0xbe45ea24	-0.19327599
26	0xbc9e7858	-0.019344494
27	0xbde78f5b	-0.1130664
28	0xbe2745b1	-0.16335179
29	0xbddf9196	-0.1091644
30	0xbdc1885c	-0.094498366
31	0x3e3d8355	0.1850713
32	0xbb4f76ca	-0.0031656497
33	0xbd9a2b58	-0.075277984
34	0xbc84f135	-0.016228298
35	0xbcbae7d6	-0.022815626
36	0xbe53066b	-0.20607917
37	0x3e45d545	0.19319637
38	0xbdf160a2	-0.11786009
39	0xbdc4470e	-0.09583865
40	0x3d3725ab	0.044713657
41	0xbddda885	-0.10823158
42	0xbda20408	-0.07910925
43	0x3e60a53f	0.21938036
44	0x3da27536	0.079325125
45	0xbd99a85d	-0.07502816
46	0xbe28e26a	-0.1649262
47	0xbd281d5d	-0.041043628
48	0x3defe6ba	0.117139295
49	0xbdfb047d	-0.122567154
50	0xbdd358a0	-0.10319638
51	0xbe32442f	-0.17408822
52	0x3cc09127	0.023506714
53	0xbe7ff74d	-0.24996682
54	0xbd5b6130	-0.053559482
55	0x3cd9b8fd	0.026577467
56	0x3de2bbb0	0.11070955
57	0x3b61f501	0.003447831
58	0x3de9035b	0.11377593
59	0x3cc9b612	0.02462295
60	0x3e03bd61	0.12865211
61	0xbdb5acf2	-0.08870877
62	0x3e7d1d0b	0.2471811
63	0x3bf83e4f	0.007575787

fc3.weight f4 [10, 64]
0	0xbec46d8b	-0.38364825
1	0x3e757790	0.2397139
2	0xbe6e7ef2	-0.23290613
3	0xbdfe2277	-0.124089174
4	0x3d037188	0.032090694
5	0x3e3f3f50	0.18676496
6	0xba01206d	-0.0004925791
7	0xbeb525e1	-0.35380462
8	0x3dfc2757	0.12312191
9	0x3dcf8f71	0.10134781
10	0xbe1b2fc3	-0.15154938
11	0xbda18ac7	-0.07887798
12	0x3dd0a40f	0.10187542
13	0x3e453217	0.19257389
14	0xbe1b7e14	-0.15184814
15	0xbd57a3ae	-0.05264633
16	0x3e40cf43	0.18829064
17	0x3c85e0de	0.016342577
18	0x3e925c75	0.28586164
19	0xbd31aa6f	-0.04337543
20	0x3d8a49a6	0.067523286
21	0xbc9115ea	-0.017710645
22	0x3de9184c	0.113815874
23	0xbe22e795	-0.15908654
24	0xbc7cfaa0	-0.015440613
25	0xbe62c7d2	-0.22146538
26	0xbe017817	-0.12643467
27	0xbea1f528	-0.31632352
28	0x3dafd17a	0.08584876
29	0xbe1c1ff6	-0.15246567
30	0xbe90669a	-0.2820328
31	0xbeaf0b8e	-0.34188503
32	0xbdb35bcd	-0.08757744
33	0xbe1c3bd9	-0.15257205
34	0x3e3034d8	0.17207658
35	0xbe8a085a	-0.26959497
36	0xbd67268f	-0.056433257
37	0xbcb6e622	-0.022326533
38	0x3d8cb140	0.06869745
39	0xbb61dddf	-0.003446452
40	0xbe02b09a	-0.1276268
41	0x3d799083	0.060928833
42	0xbd85f231	-0.06540335
43	0x3da85e7c	0.082211465
44	0xbe18fbfb	-0.14939873
45	0x3c027118	0.007961534
46	0x3e628b57	0.22123466
47	0x3e7ac7b3	0.24490242
48	0x3cd2dc89	0.025739925
49	0xbe3f5d51	-0.18687941
50	0xbe1d5411	-0.153641
51	0x3c007e7b	0.007842655
52	0x3d999535	0.07499162
53	0x3e70f9e3	0.23532824
54	0xbd8bace5	-0.068200864
55	0x3e3cef35	0.18450625
56	0xbcfc79b9	-0.03081976
57	0xbcd3f97a	-0.025875796
58	0x3d5a2bec	0.053264543
59	0x3e0f49a9	0.13992943
60	0xbe969e4f	-0.29417655
61	0x3dd1a6ec	0.10236916
62	0x3d12c3e0	0.035831332
63	0x3daddbca	0.08489187
64	0x3e30fd07	0.17284022
65	0xbee63a4a	-0.44966346
66	0x3bae2c60	0.0053153485
67	0xbec20f7f	-0.37902448
68	0xbe6185fa	-0.22023764
69	0xbe80aaf2	-0.2513042
70	0xbd9f678d	-0.077834226
71	0x3e47cbd0	0.19511342
72	0xbe457ec7	-0.19286643
73	0x3dff4b90	0.12465584
74	0x3dcb9fc1	0.0994258
75	0xbade7f9f	-0.001697529
76	0x3ba6eba1	0.005094007
77	0xbd82f187	-0.06393724
78	0xbea5c28f	-0.32375
79	0xbe2e978b	-0.17049997
80	0xbeb7e312	-0.35915428
81	0xbe2e05b1	-0.16994359
82	0x3ea359c7	0.31904432
83	0x3daa2adb	0.08308955
84	0xbd888d67	-0.06667595
85	0xbe5a7bf9	-0.21336354
86	0x3c63a533	0.013894367
87	0xbebd3efd	-0.3696212
88	0xbe6b835e	-0.22999331
89	0x3e786458	0.24257028
90	0xbebd3224	-0.36952317
91	0x3d42c8be	0.047554724
92	0xbb617b77	-0.0034405866
93	0xbe2bd67a	-0.16781035
94	0x3e701a8c	0.23447627
95	0xbcfe4328	-0.031037882
96	0x3de9802c	0.114014
97	0x3e59cf8b	0.21270578
98	0xbd1c4f14	-0.038161352
99	0xbe676dda	-0.22600499
100	0xbc5e98f0	-0.013586268
101	0xbe92ae28	-0.28648496
102	0x3da863a7	0.08222132
103	0xbd888756	-0.06666438
104	0xbe323c99	-0.17405929
105	0x3e0bce01	0.13652803
106	0x3d963ec6	0.07336192
107	0xbd02ef81	-0.03196669
108	0x3e689ed5	0.2271684
109	0x3d6fdb7d	0.05855893
110	0x3cd9600e	0.02653506
111	0x3de24976	0.11049168
112	0x3cc0afcb	0.023521325
113	0xbe3d80f4	-0.18506223
114	0x3e6f32c9	0.23359217
115	0x3e269487	0.16267596
116	0xbe1d01fd	-0.1533279
117	0x3d7f7c57	0.06237444
118	0x3d3113f4	0.04323192
119	0xbd8b5308	-0.06802946
120	0xbd98f66b	-0.074688755
121	0xbe5f79c4	-0.21823794
122	0xbe9dd02a	-0.3082288
123	0x3bc4f0d9	0.0060101566
124	0x3dad7738	0.08470005
125	0xbe8bd893	-0.2731367
126	0xbd8f9c48	-0.0701223
127	0xbdf8fac0	-0.12157202
128	0x3d5c0b69	0.05372182
129	0xbe5f51e7	-0.21808587
130	0x3e5159a2	0.20444348
131	0x3cbe9fcb	0.023269555
132	0xbe3af413	-0.1825717
133	0xbeef4214	-0.467301
134	0x3da5c0c1	0.080934055
135	0xbc0cfa51	-0.008604602
136	0xbd8e3656	-0.069439575
137	0x3e5c40c2	0.21509078
138	0x3e11fd5c	0.14256805
139	0xbe599562	-0.21248391
140	0x3e194c38	0.14970481
141	0x3d8e0612	0.069347516
142	0xbe29e355	-0.16590627
143	0xbda901e6	-0.08252315
144	0x3e0a2649	0.13491167
145	0x3df90512	0.1215917
146	0xbec4188c	-0.38299978
147	0x3defa84b	0.11702021
148	0xbc669e61	-0.014075846
149	0x3de66ce6	0.112512395
150	0xbe930491	-0.2871442
151	0x3deb1af7	0.114797525
152	0x3e2287d1	0.15872122
153	0xbe079573	-0.13240604
154	0xbccd0492	-0.025026593
155	0x3d83c26e	0.06433569
156	0xbcafbad2	-0.021451388
157	0x3e8148af	0.25250766
158	0x3e088d3b	0.13335125
159	0x3d3748cf	0.04474717
160	0xbe091fa1	-0.13390972
161	0x3e21ade6	0.15788993
162	0x3de9317c	0.113863915
163	0x3e084da7	0.13310872
164	0xbde69ef7	-0.11260789
165	0xbe4859c4	-0.19565493
166	0x3ca6a367	0.020341588
167	0xbe1b3591	-0.15157153
168	0xbe4c5292	-0.19953373
169	0xbe01b9d8	-0.1266855
170	0xbe3439dd	-0.17600198
171	0xbe6fb1ca	-0.23407665
172	0xbc9516a2	-0.018199269
173	0x3e6a45e2	0.2287822
174	0x3dfcb15a	0.123385146
175	0xbe8580f4	-0.26074946
176	0xbebad1e9	-0.36488274
177	0xbdd187c0	-0.102309704
178	0xbec84517	-0.3911521
179	0xbeb7712a	-0.35828525
180	0x3c4fcfc6	0.012683814
181	0x3d1b0a49	0.037851606
182	0xbe9f1790	-0.31072664
183	0x3d78d6e2	0.060751803
184	0x3e472c1a	0.19450417
185	0xbea4fe5e	-0.32225317
186	0x3d6462fb	0.055758458
187	0xbdddecfb	-0.10836216
188	0xbd7fdd56	-0.06246694
189	0x3e080f02	0.13286975
190	0xbdd6e2e7	-0.10492497
191	0x3ca0ccdc	0.019628935
192	0xbece8038	-0.40332198
193	0x3de23b88	0.11046511
194	0xbd97385d	-0.07383797
195	0xbd8077c4	-0.062728435
196	0xbe06e862	-0.13174585
197	0xbe3380f9	-0.17529668
198	0xbe1f6b50	-0.1556828
199	0x3c6b928c	0.014378201
200	0xbe4e8bfa	-0.20170584
201	0x3d17162a	0.03688637
202	0x3df7d930	0.12101972
203	0x3d8c3a5d	0.068470694
204	0x3d2744ac	0.040836975
205	0xbea69882	-0.3253823
206	0xbe706222	-0.23474935
207	0xbc82b459	-0.015955137
208	0xbe523525	-0.20528086
209	0x3cc7b554	0.024378456
210	0xbe37a204	-0.17932898
211	0xbe9ad4b5	-0.30240408
212	0xbe58fd48	-0.21190369
213	0x3df71920	0.12065339
214	0xbd9e44ed	-0.0772799
215	0xbe079c5b	-0.13243239
216	0x3e0600c0	0.13086224
217	0xbe42e2bf	-0.1903181
218	0xbe7fede5	-0.24993093
219	0x3e4e1b56	0.20127615
220	0xbedbf6a0	-0.42961597
221	0xbe10ab05	-0.14127739
222	0xbe521c9c	-0.20518726
223	0x3e6a7158	0.228948
224	0xbe8d6a75	-0.27620283
225	0xbe2f1e41	-0.17101385
226	0x3e7fce2c	0.24980992
227	0x3deec95c	0.116595
228	0x3e19b542	0.1501055
229	0xbe26f4ca	-0.16304317
230	0xbdd8e70f	-0.10590946
231	0xbeb8d1e8	-0.36097646
232	0xbee3b44a	-0.44473487
233	0xbd9ae6b9	-0.07563538
234	0xbeae282a	-0.34015018
235	0xbed7ff19	-0.42186812
236	0x3e22eba9	0.1591021
237	0xbdc9ca1b	-0.09853002
238	0xbdf336d7	-0.11875694
239	0xbeccfac8	-0.4003508
240	0x3d3d8fff	0.046279904
241	0xbe2820f3	-0.16418819
242	0x3dafd383	0.085852645
243	0x3d9f9661	0.077923544
244	0x3ecbe1b2	0.3982063
245	0x3b907677	0.0044086534
246	0xbe8cf553	-0.27530918
247	0x3e2e51c4	0.17023379
248	0x3d76f52b	0.060292404
249	0x3dfa9d1a	0.12236996
250	0x3de3a338	0.11115116
251	0xbd33c588	-0.043889552
252	0x3e7cb9ac	0.24680203
253	0xbe8ae1eb	-0.27125487
254	0xbd60467c	-0.05475472
255	0x3e3a1e9e	0.18175742

fc3.bias f4 [10]
0	0x3e1986fe	0.14992902
1	0xbd715d9d	-0.058927167
2	0x3d17592a	0.036950268
3	0x3da43ee4	0.08019808
4	0x3e4aa8ad	0.19790907
5	0x3d217a71	0.03942341
6	0x3e135092	0.14386204
7	0xbda1999f	-0.07890629
8	0x3ecdb299	0.40175322
9	0x3dfc843a	0.12329908
